…
    "d2l_lib_fingerprint": "sha256:6fbe40e6d908300482df1316985abe8f965031733233b00ef5d480600e1ae18b",
    "max_inline_bytes": 0
  },
  "cells": {
    "fcn-fully-convolutional-networks": {
      "code_fingerprint": "sha256:d49c767c237dcc2c977fae952c928c20130dd1e624e0228fa9f14e55f72097cb",
      "kind": "text",
      "outputs": []
    },
    "fcn-the-model-1": {
      "code_fingerprint": "sha256:4bb39c62d748cb6a1af3b6b503a3bfcf708d2000520315ad3304ba6cbc888d49",
      "kind": "text",
      "outputs": [
        {
          "type": "execute_result",
          "text": "[Sequential(\n   (0): BasicBlock(\n     (conv1): Conv2d(256, 512, kernel_size=(3, 3), stride=(2, 2), padding=(1, 1), bias=False)\n     (bn1): BatchNorm2d(512, eps=1e-05, momentum=0.1, affine=True, track_running_stats=True)\n     (relu): ReLU(inplace=True)\n     (conv2): Conv2d(512, 512, kernel_size=(3, 3), stride=(1, 1), padding=(1, 1), bias=False)\n     (bn2): BatchNorm2d(512, eps=1e-05, momentum=0.1, affine=True, track_running_stats=True)\n     (downsample): Sequential(\n       (0): Conv2d(256, 512, kernel_size=(1, 1), stride=(2, 2), bias=False)\n       (1): BatchNorm2d(512, eps=1e-05, momentum=0.1, affine=True, track_running_stats=True)\n     )\n   )\n   (1): BasicBlock(\n     (conv1): Conv2d(512, 512, kernel_size=(3, 3), stride=(1, 1), padding=(1, 1), bias=False)\n     (bn1): BatchNorm2d(512, eps=1e-05, momentum=0.1, affine=True, track_running_stats=True)\n     (relu): ReLU(inplace=True)\n     (conv2): Conv2d(512, 512, kernel_size=(3, 3), stride=(1, 1), padding=(1, 1), bias=False)\n     (bn2): BatchNorm2d(512, eps=1e-05, momentum=0.1, affine=True, track_running_stats=True)\n   )\n ),\n AdaptiveAvgPool2d(output_size=(1, 1)),\n Linear(in_features=512, out_features=1000, bias=True)]"
        }
      ]
    },
    "fcn-the-model-2": {
      "code_fingerprint": "sha256:7593df895b8598c6c6f6aaf4d86af7ff46f7be849362ee93bcb45ce2627f6b7f",
      "kind": "text",
      "outputs": []
    },
    "fcn-the-model-3": {
…
