…
      "outputs": [
        {
          "type": "execute_result",
          "text": "torch.Size([256, 20])"
        }
      ]
    },
    "model-construction-building-from-a-config-1": {
      "code_fingerprint": "sha256:34c086efeedd4dc3f07d851db790c5c56fd30809c30add32f777fe475aeab9e2",
      "kind": "text",
      "outputs": []
    },
    "model-construction-building-from-a-config-2": {
      "code_fingerprint": "sha256:957fa05acc47c489e93ebbeee5b1264186dc6789839dfaf060191a9b88c8903a",
      "kind": "text",
      "outputs": [
        {
          "type": "execute_result",
          "text": "Sequential(\n  (0): Linear(in_features=784, out_features=256, bias=True)\n  (1): ResidualBlock(\n    (body): Sequential(\n      (0): Linear(in_features=256, out_features=256, bias=True)\n      (1): ReLU()\n      (2): Linear(in_features=256, out_features=256, bias=True)\n    )\n  )\n  (2): ResidualBlock(\n    (body): Sequential(\n      (0): Linear(in_features=256, out_features=256, bias=True)\n      (1): ReLU()\n      (2): Linear(in_features=256, out_features=256, bias=True)\n    )\n  )\n  (3): ResidualBlock(\n    (body): Sequential(\n      (0): Linear(in_features=256, out_features=256, bias=True)\n      (1): ReLU()\n      (2): Linear(in_features=256, out_features=256, bias=True)\n    )\n  )\n  (4): ResidualBlock(\n    (body): Sequential(\n      (0): Linear(in_features=256, out_features=256, bias=True)\n      (1): ReLU()\n      (2): Linear(in_features=256, out_features=256, bias=True)\n    )\n  )\n  (5): Linear(in_features=256, out_features=10, bias=True)\n)"
        }
      ]
    },
    "model-construction-building-from-a-config-3": {
      "code_fingerprint": "sha256:b13cfa890abb6faedebb28cc261211cb7f72dd39c409c2ba41d5247cc30e63c3",
      "kind": "text",
      "outputs": [
        {
          "type": "execute_result",
          "text": "torch.Size([2, 10])"
        }
      ]
    },
    "model-construction-building-from-a-config-4": {
…
